…
del #use binary_crossentropy loss #use adem optimizer https://arxiv.org/abs/1412.6980 #keep track of accuracy metric model %&gt;% compile( loss = &quot;binary_crossentropy&quot;, optimizer = optimizer_adam(lr = learning_rate), metrics = &quot;accuracy&quot; ) return(model) } #visualize model model &lt;- model_function() model ## Model ## Model: &quot;sequential&quot; ## ________________________________________________________________________________ ## Layer (type) Output Shape Param # ## ================================================================================ ## xception (Functional) (None, 7, 7, 2048) 20861480 ## ________________________________________________________________________________ ## global_average_pooling2d (GlobalAve (None, 2048) 0 ## ________________________________________________________________________________ ## dense_1 (Dense) (None, 1024) 2098176 ## ________________________________________________________________________________ ## activation (Activation) (None, 1024) 0 ## ________________________________________________________________________________ ## dropout (Dropout) (None, 1024) 0 ## ________________________________________________________________________________ ## dense (Dense) (None, 1) 1025 ## ================================================================================ ## Total params: 22,960,681 ## Trainable params: 2,099,201 ## Non-trainable params: 20,861,480 ## ________________________________________________________________________________ batch_size &lt;- 32 #numer of times the network will see all of the images epochs &lt;- 6 #train model hist &lt;- model %&gt;% fit( trai
…
